ReinforcementCode/model/model.pth (torch, 17216 bytes, 4 tensors)

linear1.weight f4 [256, 11]
-0.20810388 0.058146 -0.026587844 -0.22918291 -0.28969017 -0.25616688 -0.22303753 -0.2579418
-0.019675821 0.14584395 -0.11396773 0.2150029 -0.087000966 0.15263239 -0.058133822 0.19464558
-0.17407492 0.24395308 0.27444333 -0.28713343 0.09773359 -0.18761341 -0.027004868 -0.0214203
-0.2301005 -0.2797469 -0.14644578 0.19591859 0.039012842 -0.17693461 0.13714845 -0.25647587
-0.019166552 -0.086495586 -0.1565202 -0.296431 0.2759954 -0.2058851 -0.26922956 -0.2412789
0.25209075 -0.24185139 0.2010269 0.18061885 0.24273287 -0.22129428 0.049102593 0.23887198
0.18722767 -0.28987816 0.16115865 -0.30394217 0.29449144 0.12937073 -0.0801172 -0.04354123
0.24190265 -0.03367194 -0.03758696 0.07826983 0.12052889 0.21468462 0.05372339 -0.029086359
0.23966758 0.2078623 0.19386373 -0.13816738 0.19951275 -0.2121559 0.0035048276 -0.07209049
-0.19658159 0.07193153 0.039368216 0.24651603 -0.14084636 0.12494422 -0.07772294 0.21864578
0.20865002 -0.16726978 -0.24760881 -0.11128244 -0.0857238 0.25876382 -0.21434681 -0.019201595
-0.12838632 -0.30454367 -0.018442899 0.13871782 -0.20740598 0.07661555 0.13132802 0.27994877
-0.12663718 0.25636387 -0.073569626 -0.27162722 0.18894558 -0.057507142 0.04479681 -0.25832832
0.26209465 0.06804713 0.25615862 -0.2835492 0.2710678 -0.109712854 0.31403604 -0.09774523
0.11685166 0.15609731 -0.02960883 0.23187552 -0.13072553 -0.2196978 -0.16809954 -0.0098062465
-0.28560108 -0.18868153 -0.030430712 0.2540326 0.23637505 0.06808384 -0.051389933 0.023970785
0.20020576 -0.073821925 -0.23886076 -0.30169985 0.27655277 0.16737184 0.20650141 -0.070842996
-0.15805028 -0.27902856 -0.05801936 -0.22382733 -0.07008288 0.15030672 -0.08178942 -0.04296812
-0.08955661 -0.07800222 0.30646855 0.275703 -0.18371183 0.03509601 0.24463965 -0.118017115
-0.06501074 0.010455389 0.015443065 -0.29280803 0.24764876 -0.16156359 0.17083266 0.06349383
0.16002585 0.23847343 -0.20172904 0.17477506 -0.25550395 -0.19222824 -0.054053187 0.27580145
0.31555375 0.24488792 -0.11356505 0.13188608 0.26275468 -0.16888575 0.19769707 0.10493711
-0.01033458 0.17413323 0.13795039 0.1831691 0.1055657 -0.28566864 0.27880293 0.252326
-0.15984346 0.26761878 0.25496256 0.1211145 -0.27610293 0.16633607 0.04908016 0.17421906
0.28876653 -0.14363746 0.13148554 0.28635517 -0.19965942 0.15961306 -0.18258531 -0.25200292
-0.2387749 -0.19305669 -0.14231254 -0.2343234 -0.046426576 0.0945573 -0.20350713 0.021251122
-0.24177095 -0.14269342 -0.015621126 0.116771385 0.15311088 0.029508283 -0.017212262 0.08053986
-0.052501667 -0.0559748 0.07061824 0.26268387 -0.09715456 0.20777383 0.01665644 0.070660874
0.17481786 -0.20461476 -0.2022044 0.06404355 0.18417332 -0.24406928 0.13264745 -0.20748968
0.14985006 0.12527567 0.29754582 -0.1860345 -0.16372688 -0.15697657 -0.08710286 -0.061164133
-0.21015525 -0.08577218 0.0880654 -0.075665615 -0.23618208 0.22364068 -0.2656848 0.25398564
0.06389648 -0.16866878 0.12278633 0.049798544 0.18225692 0.21049291 0.22719982 -0.26647902
00000000: 2f19 55be 802a 6e3d c0ce d9bc edae 6abe
00000010: 4552 94be 4e28 83be f363 64be f310 84be
00000020: 302f a1bc 1e58 153e ea67 e9bd b829 5c3e
00000030: 902d b2bd aa4b 1c3e bb1d 6ebd 2c51 473e
00000040: b240 32be d6ce 793e d683 8c3e 2703 93be
00000050: 8c28 c83d bb1d 40be 5039 ddbc a079 afbc
00000060: 779f 6bbe fc3a 8fbe e2f5 15be e29e 483e
00000070: eecb 1f3d 592e 35be a570 0c3e ce50 83be
00000080: 2c03 9dbc 9924 b1bd d546 20be cec5 97be
00000090: 454f 8d3e 8bd3 52be 75d8 89be d111 77be
000000a0: 0a12 813e e4a7 77be ffd9 4d3e 26f4 383e
000000b0: f78e 783e f89a 62be cd1f 493d db9a 743e
000000c0: 9cb8 3f3e e96a 94be c606 253e 4f9e 9bbe
000000d0: 95c7 963e c379 043e 7d14 a4bd 4a58 32bd
000000e0: 54b5 773e 97eb 09bd c9f4 19bd ef4b a03d
000000f0: dad7 f63d 49d6 5b3e 0f0d 5c3d 8446 eebc
00000100: 6b6b 753e dbd9 543e 3784 463e c07b 0dbe
00000110: 124d 4c3e 653f 59be 40b1 653b 2ea4 93bd
00000120: af4c 49be d750 933d 9140 213d b36e 7c3e
00000130: 073a 10be c1e2 ff3d 342d 9fbd aee4 5f3e
00000140: 5aa8 553e c548 2bbe 2a8d 7dbe 0ce8 e3bd
00000150: f68f afbd b17c 843e bb7d 5bbe aa4c 9dbc
00000160: b477 03be 26ed 9bbe 9015 97bc 0b0c 0e3e
00000170: 3c62 54be 9de8 9c3d da7a 063e 7255 8f3e
00000180: 2dad 01be 2042 833e acab 96bd b912 8bbe
00000190: f37a 413e 9c8c 6bbd dc7c 373d 9c43 84be
000001a0: 4531 863e 4b5c 8b3d 3927 833e 5c2d 91be
000001b0: 66c9 8a3e 22b1 e0bd 55c9 a03e a72e c8bd
000001c0: ec4f ef3d f9d7 1f3e 388e f2bc c770 6d3e
000001d0: eadc 05be 76f8 60be 4922 2cbe 61aa 20bc
000001e0: 4e3a 92be bb35 41be d449 f9bc 9010 823e
000001f0: 4d0c 723e 8a6f 8b3d 407e 52bd 615e c43c
00000200: bd02 4d3e f32f 97bd ea97 74be 6778 9abe
00000210: 5398 8d3e 8663 2b3e 1b75 533e 2216 91bd
00000220: efd7 21be d5dc 8ebe b5a5 6dbd fe32 65be
00000230: 9d87 8fbd 01ea 193e 3681 a7bd 57ff 2fbd
00000240: 7569 b7bd a1bf 9fbd 72e9 9c3e f228 8d3e
00000250: f41e 3cbe d5c0 0f3d d182 7a3e f5b2 f1bd
00000260: 5a24 85bd 144d 2b3c e904 7d3c efea 95be
00000270: a397 7d3e ed70 25be c2ee 2e3e 0e09 823d
00000280: d1dd 233e 6132 743e 0f92 4ebe 3cf8 323e
00000290: 6ad1 82be 7bd7 44be e066 5dbd d935 8d3e
000002a0: 4390 a13e e6c3 7a3e cb94 e8bd 250d 073e
000002b0: c887 863e 63f0 2cbe 1a71 4a3e 44e9 d63d
000002c0: 5f52 29bc fb4f 323e de42 0d3e ae90 3b3e
000002d0: d432 d83d 2943 92be 42bf 8e3e e030 813e
000002e0: 01ae 23be 5405 893e 748a 823e e10a f83d
000002f0: 5d5d 8dbe 0154 2a3e 4708 493d 7b66 323e
00000300: 35d9 933e b315 13be 25a4 063e 259d 923e
00000310: 8573 4cbe 9b71 233e a5f7 3abe 8706 81be
00000320: 6881 74be a7b0 45be 61ba 11be 79f2 6fbe
00000330: cb29 3ebd 42a7 c13d 2c64 50be d516 ae3c
00000340: ce92 77be 391e 12be c0ef 7fbc d625 ef3d
00000350: 19c9 1c3e 5bbb f13c bb00 8dbc 15f2 a43d
00000360: fd0b 57bd d545 65bd 4ca0 903d 807e 863e
00000370: f8f8 c6bd aac2 543e 1673 883c a6b6 903d
00000380: 7403 333e 8886 51be ac0e 4fbe 4429 833d
00000390: ee97 3c3e 4ced 79be bcd4 073e 2d78 54be
000003a0: 4b72 193e 4448 003e ed57 983e d47f 3ebe
000003b0: 05a8 27be 77be 20be fc62 b2bd 3e87 7abd
000003c0: f032 57be 53a9 afbd a25b b43d 93f6 9abd
000003d0: b7d9 71be 1002 653e d707 88be 680a 823e
000003e0: 28dc 823d 82b7 2cbe 6677 fb3d 8ff9 4b3d
000003f0: 8fa1 3a3e 748b 573e 12a7 683e f06f 88be

linear1.bias f4 [256]
-0.28790867 -0.03597744 0.054701805 0.020931937 -0.19855969 -0.18140832 -0.06974152 -0.18066896
-0.15020846 0.2314567 0.12694561 0.06429114 0.031992987 0.07845441 0.12687398 0.303744
-0.134182 0.002135354 0.07717749 -0.11372973 -0.2928081 -0.28115574 -0.1441565 -0.2566529
-0.08620024 0.22159995 -0.29292533 -0.0701607 0.33578417 0.25392026 0.15191557 -0.005938004
0.071360216 -0.25471833 0.2971913 -0.26759794 0.10222398 0.18366925 -0.119814746 -0.16168143
-0.17948617 -0.26998064 -0.2486308 -0.11478043 0.17949465 0.19646144 0.30506808 0.0110288095
0.13209756 0.21535267 0.29320252 -0.080660485 0.06742723 -0.26405346 -0.115370646 0.13492188
0.09150689 -0.13590321 0.28438 -0.13142121 0.2349634 -0.046126302 -0.31987068 0.07107234
0.12892537 -0.20374551 0.1761128 -0.049442947 0.25654396 0.09427044 0.3230822 0.15430354
-0.11267674 0.012492888 -0.2416256 -0.02398562 0.0049587134 -0.2017968 -0.21855754 0.19463906
0.024131622 0.17717429 0.19381233 -0.065499656 0.23301895 0.06283142 -0.11750172 0.228576
0.019758219 0.1636429 -0.22831048 0.14137472 0.1105638 0.14189811 -0.28631172 -0.06143637
-0.12875772 -0.033016518 -0.10997225 -0.002623799 -0.19279815 -0.18655473 -0.1170348 0.22735864
0.2582894 0.23022182 0.19480772 0.06252244 0.011278717 -2.0534499e-05 0.20145305 -0.18479702
0.17716044 0.30839357 0.019120634 -0.009200954 0.26625633 0.28552052 -0.14873816 0.18926647
0.19874606 -0.252849 0.10463765 0.24176583 0.18589811 -0.27975416 0.2912917 0.057396896
-0.07395696 -0.05494269 -0.014144492 0.10823537 0.0790675 0.20463532 -0.21379554 -0.27683857
-0.050711274 -0.1314341 -0.15674727 0.026455978 -0.2528467 -0.09794283 0.16798076 -0.023198973
-0.3149717 0.28882927 0.2521464 0.22567856 -0.045918114 -0.24459584 0.31769198 0.2904039
-0.2728039 0.030719114 0.10971849 -0.07826853 -0.21423334 0.08373043 0.090004645 0.21622509
-0.20480636 0.27525154 -0.2735694 0.30846113 -0.002098538 -0.29386947 0.08569062 -0.023990491
0.06693134 0.051113885 0.24125132 -0.16759937 -0.13569324 0.17643659 -0.08542439 0.052713573
-0.014507434 0.09806931 0.10879264 -0.07024747 -0.02661721 0.01646026 0.08324313 -0.1182947
0.015918458 0.002488435 -0.24650237 0.225394 0.0050591715 -0.29846996 -0.23373339 -0.17536435
-0.14176814 0.12838206 -0.26180005 -0.16472982 -0.23699236 0.14883925 0.26078916 0.020382943
0.089779586 -0.21252283 0.23244137 0.059755825 0.17662573 -0.13261515 0.14209768 -0.21861668
0.28781712 -0.14776145 -0.08336003 0.22156256 0.097588874 -0.19923456 -0.18086484 0.118156396
0.26767296 -0.20168632 0.28632456 0.07173111 0.11328868 0.12672509 -0.098991975 -0.039362464
0.051416047 -0.13485052 -0.13119856 0.07859566 0.12773483 -0.036353495 0.10608289 0.18322484
0.12271108 -0.046441194 -0.010176783 0.3142507 -0.117670126 0.20346591 -0.18217948 0.21036969
-0.0068414216 0.28037307 -0.28190693 -0.16158153 0.21746802 -0.0004561838 0.18913496 -0.013872851
0.18501659 0.039775115 -0.30571297 -0.24504659 -0.20686974 0.11305182 0.24386758 -0.2850521
00000000: c468 93be 155d 13bd 000f 603d 7479 ab3c
00000010: 3b53 4bbe 1ac3 39be a4d4 8ebd 4901 39be
00000020: 3fd0 19be fc02 6d3e 08fe 013e 13ab 833d
00000030: 140b 033d b5ac a03d 41eb 013e 5584 9b3e
00000040: 0267 09be 4cf1 0b3b 3b0f 9e3d 22eb e8bd
00000050: f1ea 95be a5f3 8fbe c39d 13be 0268 83be
00000060: c089 b0bd 19eb 623e 4ffa 95be 6ab0 8fbd
00000070: e7eb ab3e d601 823e c18f 1b3e 9693 c2bb
00000080: 4e25 923d 716a 82be 7529 983e 9902 89be
00000090: ce5a d13d cb13 3c3e 6f61 f5bd d18f 25be
000000a0: 39cb 37be e73a 8abe 1399 7ebe 0112 ebbd
000000b0: 72cd 373e 302d 493e e231 9c3e 2eb2 343c
000000c0: 9544 073e 6985 5c3e a41e 963e 5331 a5bd
000000d0: 4a17 8a3d 0432 87be 7247 ecbd f628 0a3e
000000e0: f767 bb3d 362a 0bbe 419a 913e 4893 06be
000000f0: 3f9a 703e efee 3cbd 17c6 a3be 608e 913d
00000100: 0305 043e aaa2 50be ea56 343e b084 4abd
00000110: bb59 833e dc10 c13d 086b a53e bf01 1e3e
00000120: 10c3 e6bd f8ae 4c3c b46c 77be 7e7d c4bc
00000130: b47c a23b d2a3 4ebe 8ccd 5fbe 764f 473e
00000140: aeaf c53c 2d6d 353e bd76 463e af24 86bd
00000150: 859c 6e3e c2ad 803d bea4 f0bd d40f 6a3e
00000160: fddb a13c 0192 273e 39ca 69be 89c4 103e
00000170: 466f e23d bd4d 113e 7397 92be b4a4 7bbd
00000180: 10d9 03be 543c 07bd 2239 e1bd 0bf4 2bbb
00000190: e16c 45be 3408 3fbe f1af efbd b4d0 683e
000001a0: 823e 843e 45bf 6b3e ad7b 473e c40b 803d
000001b0: 5eca 383c 8041 acb7 b549 4e3e 6e3b 3dbe
000001c0: 8c69 353e c3e5 9d3e e0a2 9c3c 99bf 16bc
000001d0: c052 883e bf2f 923e d14e 18be 12cf 413e
000001e0: 1684 4b3e 6d75 81be 444c d63d 7691 773e
000001f0: 135c 3e3e f03b 8fbe 3024 953e 0219 6b3d
00000200: bf76 97bd 960b 61bd 4dbe 67bc 81aa dd3d
00000210: 24ee a13d ec8b 513e 38ed 5abe c9bd 8dbe
00000220: a0b6 4fbd a996 06be 5b82 20be 35ba d83c
00000230: 1f75 81be 4096 c8bd 2603 2c3e c60b bebc
00000240: f843 a1be 6ee1 933e 5519 813e 4818 673e
00000250: a214 3cbd 5577 7abe 86a8 a23e d2af 943e
00000260: f4ac 8bbe a7a6 fb3c 16b4 e03d 404b a0bd
00000270: fc5f 5bbe dc7a ab3d 5b54 b83d 1c6a 5d3e
00000280: c2b8 51be c5ed 8c3e 4a11 8cbe 9eee 9d3e
00000290: a087 09bb 0f76 96be 907e af3d b587 c4bc
000002a0: 4c13 893d cb5c 513d 960a 773e 2b9f 2bbe
000002b0: 2bf3 0abe cbab 343e fcf2 aebd 30ea 573d
000002c0: 97b0 6dbc 90d8 c83d adce de3d e8dd 8fbd
000002d0: 560c dabc abd7 863c 607b aa3d 7e44 f2bd
000002e0: 6d67 823c 0315 233b 1e6b 7cbe afcd 663e
000002f0: 68c7 a53b 0ed1 98be ce57 6fbe b692 33be
00000300: ab2b 11be 9676 033e a80a 86be efae 28be
00000310: 20ae 72be 5169 183e 2886 853e 21fa a63c
00000320: 5cde b73d 969f 59be 1c05 6e3e 86c2 743d
00000330: 60dd 343e 44cc 07be 0e82 113e 0ddd 5fbe
00000340: c45c 933e c74e 17be aab8 aabd 4ce1 623e
00000350: addc c73d 2504 4cbe a234 39be fbfb f13d
00000360: 6e0c 893e dc86 4ebe 2299 923e c3e7 923d
00000370: e503 e83d 39c4 013e 4ebc cabd 893a 21bd
00000380: a299 523d 4116 0abe ea58 06be c3f6 a03d
00000390: ebcc 023e 67e7 14bd fc41 d93d 4b9f 3b3e
000003a0: f24f fb3d 1f39 3ebd 86bc 26bc 78e5 a03e
000003b0: 09fd f0bd 5e59 503e 428d 3abe 276b 573e
000003c0: 012e e0bb 0f8d 8f3e 1b56 90be a175 25be
000003d0: f0af 5e3e f42b efb9 98ac 413e f44a 63bc
000003e0: fd74 3d3e 3beb 223d 6986 9cbe 7eed 7abe
000003f0: a9d5 53be b687 e73d 6cb8 793e 59f2 91be

linear2.weight f4 [3, 256]
-0.056362197 0.027436068 0.02615733 0.045785263 -0.048361335 -0.038451336 0.014113018 0.036908105
0.04185292 -0.00443231 -0.09262748 0.060238738 0.010223437 -0.014510983 0.018069062 -0.017445061
0.0058935722 -0.040565636 -0.026557386 0.0035852501 0.047830947 -0.07285817 0.016347785 -0.08053936
0.0028941093 0.007898823 -0.041090626 0.029067978 -0.03890659 -0.07730962 -0.05245595 0.014230986
0.033033516 0.02161197 -0.05330963 -0.029486386 0.050196253 -0.010373221 -0.008600376 -0.087557524
-0.042938806 0.05790464 -0.0014764541 -0.05134443 0.05078286 0.08459162 -0.006306102 -0.061154835
-0.04184552 -0.0013794787 -0.08409783 0.015066379 -0.029902922 0.03995197 -0.032344796 -0.015992396
0.014247227 0.043512896 3.1138861e-06 0.015049069 0.03561345 0.034271847 0.01091514 -0.017442565
0.011456884 0.031830244 0.028135018 -0.012955728 -0.0077719786 -0.06289762 -0.07069036 -0.012652708
0.05924898 -0.051841967 0.006593102 0.008571533 0.068792954 -0.07681128 0.04048503 -0.060547747
-0.040336274 0.021398554 -0.019038744 0.020175546 0.05697162 -0.0020427098 0.039829507 0.055954505
-0.008807264 0.03901467 0.012633367 -0.09294605 0.014090401 -0.047543287 0.03986775 -0.033157445
0.116250835 0.055483393 -0.017925913 0.0401686 -0.0037226616 0.021881947 0.0199344 0.023567148
-0.054071255 -0.002832049 -0.057752974 0.0370783 0.01428729 -0.025902325 -0.02229304 -0.017522816
-0.0460056 -0.03540365 -0.0026782604 -0.028897373 0.023823746 0.0010014253 -0.036647994 -0.012655494
-0.08633227 -0.0049747443 -0.015953531 0.025643773 -0.060174517 0.0074362224 0.020235166 -0.048092935
-0.03928803 -0.070376046 0.031713646 -0.06836172 0.017180838 0.07579994 -0.011006238 0.014806409
-0.05056814 0.004518561 -0.015843019 -0.010211316 -0.04736322 0.005475349 -0.026106067 0.035990376
0.024845432 -0.0348671 -0.0048723593 -0.05324522 -0.047033727 -0.046820737 -0.072019175 -0.038183108
-0.027489623 0.023234261 -0.06859034 0.047041357 0.0018354203 -0.022167027 -0.013634359 0.029909652
0.02905435 0.0031787446 -0.038725395 -0.054744765 0.024468658 0.04557839 -0.040249653 0.0023703051
-0.018050132 0.027242009 0.021616641 0.004001385 -0.001994125 0.010022961 0.0064218487 -0.020976676
-0.0015207465 -0.023110392 -0.0017174133 0.030356502 -0.0077436347 -0.0018860492 0.025864964 -0.04756797
0.07463615 -0.009149778 -0.013938675 0.017971648 -0.038942132 -0.016685521 -0.013909087 0.02169439
-0.038064428 -0.010944595 -0.028426496 -0.063285336 -0.015368531 -0.06658738 0.0017443945 0.051858906
-0.042578425 0.05242475 0.00062936294 -0.015202675 0.04900252 0.015741885 -0.059708685 -0.048057094
-0.051917158 0.08610889 -0.057992265 -0.057345618 -0.0373543 0.012307845 0.04317608 -0.062377367
-0.054049224 0.054705292 -0.057490826 -0.027171165 -0.030904919 -0.023061678 -0.019609 0.012404446
-0.0053993254 -0.04951299 0.06352487 0.051925298 -0.012153643 0.031426128 -0.024082253 -0.06138915
0.015780551 0.013042419 -0.028581386 -0.055530548 -0.031479962 0.013609911 0.07628538 -0.031498015
-0.036330443 0.02160554 0.019628197 -0.02074071 0.004192496 -0.04215434 -0.027371032 -0.067195624
0.019311382 0.026104877 -0.053557802 0.02827087 0.015259682 -0.0056008724 0.0023134057 0.027094258
00000000: 0cdc 66bd 9bc1 e03c e647 d63c 5489 3b3d
00000010: 8916 46bd 267f 1dbd 4a3a 673c f42c 173d
00000020: f86d 2b3d e93c 91bb 7ab3 bdbd e5bc 763d
00000030: 3480 273c 79bf 6dbc 9205 943c f2e8 8ebc
00000040: de1e c13b 2728 26bd e08e d9bc 84f6 6a3b
00000050: 62ea 433d aa36 95bd caeb 853c d2f1 a4bd
00000060: 19ab 3d3b 116a 013c a54e 28bd f81f ee3c
00000070: 845c 1fbd 8254 9ebd 0ddc 56bd 1529 693c
00000080: 274e 073d 960b b13c 335b 5abd 6f8d f1bc
00000090: 969a 4d3d 71f4 29bc 97e8 0cbc 5c51 b3bd
000000a0: 9ae0 2fbd 6a2d 6d3d 9485 c1ba 894e 52bd
000000b0: b001 503d 5f3e ad3d 6ba3 cebb 7e7d 7abd
000000c0: 3566 2bbd a0cf b4ba 7c3b acbd f9d8 763c
000000d0: f9f6 f4bc ada4 233d fa7b 04bd 7c02 83bc
000000e0: 346d 693c 943a 323d 28f8 5036 5f90 763c
000000f0: 69df 113d a360 0c3d 6ad5 323c b6e3 8ebc
00000100: a8b5 3b3c 6e60 023d 697b e63c 4344 54bc
00000110: 15ac febb 78d0 80bd 1cc6 90bd 4e4d 4fbc
00000120: 0faf 723d 3e58 54bd f30a d83b 9d6f 0c3c
00000130: 52e3 8c3d 3b4f 9dbd a1d3 253d ea00 78bd
00000140: a637 25bd 054c af3c 24f7 9bbc 3047 a53c
00000150: 135b 693d fcde 05bb 4424 233d 8d30 653d
00000160: 584c 10bc d9cd 1f3d 2ffc 4e3c 805a bebd
00000170: 6ddb 663c c0bc 42bd 5e4c 233d 1ad0 07bd
00000180: eb14 ee3d 8e42 633d 5dd9 92bc d487 243d
00000190: e6f7 73bb c541 b33c 784d a33c e40f c13c
000001a0: d279 5dbd e699 39bb 628e 6cbd 6adf 173d
000001b0: 3d15 6a3c 1d31 d4bc e59f b6bc 028c 8fbc
000001c0: 5e70 3cbd 6b03 11bd c185 2fbb 2fba ecbc
000001d0: 042a c33c 4242 833a 351c 16bd fd58 4fbc
000001e0: f9ce b0bd 2e03 a3bb fbb0 82bc e412 d23c
000001f0: 8e79 76bd 8eab f33b 38c4 a53c 19fd 44bd
00000200: 7cec 20bd 5121 90bd 2be6 013d 3b01 8cbd
00000210: d4be 8c3c 003d 9b3d 8253 34bc 9596 723c
00000220: 8a20 4fbd 7010 943b 38c9 81bc 5d4d 27bc
00000230: f0ff 41bd 8e6a b33b 64dc d5bc a56a 133d
00000240: a688 cb3c ced0 0ebd 50a8 9fbb a917 5abd
00000250: 70a6 40bd 1ac7 3fbd ca7e 93bd e465 1cbd
00000260: eb31 e1bc c755 be3c 1879 8cbd 70ae 403d
00000270: 7c92 f03a a097 b5bc a662 5fbc 1605 f53c
00000280: 6303 ee3c 7c52 503b 859e 1ebd 0c3c 60bd
00000290: 7f72 c83c 68b0 3a3d d2dc 24bd 1f57 1b3b
000002a0: dfdd 93bc a22a df3c 6215 b13c 0d1e 833b
000002b0: deaf 02bb 5837 243c 5f6e d23b 47d7 abbc
000002c0: c953 c7ba 0152 bdbc d41a e1ba 33ae f83c
000002d0: 51be fdbb 4f35 f7ba c3e2 d33c a2d6 42bd
000002e0: d6da 983d f3e8 15bc 0a5f 64bc 4739 933c
000002f0: c981 1fbd 13b0 88bc f0e2 63bc 6fb8 b13c
00000300: 72e9 1bbd f550 33bc afde e8bc be9b 81bd
00000310: 4bcc 7bbc f75e 88bd 2ba4 e43a 016a 543d
00000320: b766 2ebd 56bb 563d d5fb 243a a414 79bc
00000330: deb6 483d 20f5 803c 1891 74bd 84d7 44bd
00000340: 16a7 54bd dc59 b03d 4c89 6dbd 3de3 6abd
00000350: d300 19bd d8a6 493c 67d9 303d 697f 7fbd
00000360: b862 5dbd a812 603d 807b 6bbd 1096 debc
00000370: 502c fdbc d8eb bcbc 0ea3 a0bc 043c 4b3c
00000380: d3ec b0bb 22ce 4abd 5419 823d 9faf 543d
00000390: 1320 47bc afb8 003d 2548 c5bc 3073 7bbd
000003a0: 3746 813c dfaf 553c 8323 eabc 0074 63bd
000003b0: 22f1 00bd 1bfc 5e3c 823b 9c3d 1004 01bd
000003c0: 3bcf 14bd 1afe b03c 50cb a03c 6ce8 a9bc
000003d0: 3561 893b 07aa 2cbd 3739 e0bc dc9d 89bd
000003e0: e732 9e3c e5d9 d53c 6d5f 5bbd 5098 e73c
000003f0: bf03 7a3c 8687 b7bb 829c 173b c7f4 dd3c

linear2.bias f4 [3]
-0.074889414 -0.06592026 -0.043288708
00000000: 9f5f 99bd 3401 87bd 804f 31bd
